weights/one.weight.npy (npy, 452 bytes, 1 tensors)

array f4 [3, 3, 3, 3]
-0.32016322 -0.26510093 -0.41177464 -0.3678264 -0.6313374 -0.36119187 -0.5798885 -0.545642
-0.56771123 -0.32812494 -0.5041922 -0.48461217 -0.35778746 -0.3946942 -0.46340415 -0.32420146
-0.33127236 -0.51773643 -0.44212803 -0.5919786 -0.2895018 -0.59702235 -0.5344258 -0.5049386
-0.42039952 -0.30760998 -0.39000985 0.48422033 0.667352 0.54021424 0.69708073 0.7452492
0.484435 0.82263047 0.72492874 0.595966 0.57248896 0.5628465 0.5366483 0.7284844
0.6069136 0.4650843 0.60636497 0.6095572 0.8030588 0.80717194 0.59276414 0.5538923
0.7703459 0.7901638 0.64914787 0.5651661 0.53705794 0.7168146 -0.51438785 -0.32093057
-0.29470548 -0.62056804 -0.490104 -0.4677102 -0.44673336 -0.4064784 -0.4767624 -0.5658671
-0.38626623 -0.62578976 -0.28493088 -0.57909536 -0.42880955 -0.39912066 -0.4375454 -0.57533634
-0.639438 -0.63610476 -0.28200006 -0.49072546 -0.44085184 -0.2780875 -0.5198747 -0.36655742
-0.5955071
00000000: 6fec a3be 4fbb 87be 20d4 d2be be53 bcbe
00000010: 549f 21bf 24ee b8be 9373 14bf 32af 0bbf
00000020: 8655 11bf feff a7be bd12 01bf 161f f8be
00000030: eb2f b7be 5c15 cabe 4f43 edbe bcfd a5be
00000040: 889c a9be 608a 04bf 9b5e e2be e98b 17bf
00000050: 9439 94be 75d6 18bf 21d0 08bf a843 01bf
00000060: 9b3e d7be 0e7f 9dbe 5faf c7be baeb f73e
00000070: 95d7 2a3f 7b4b 0a3f e273 323f a7c8 3e3f
00000080: dd07 f83e e997 523f ee94 393f 3a91 183f
00000090: a38e 123f b516 103f c861 093f f47d 3a3f
000000a0: b15e 1b3f 881f ee3e bc3a 1b3f f10b 1c3f
000000b0: 4395 4d3f d2a2 4e3f 64bf 173f e3cb 0d3f
000000c0: 6435 453f 2d48 4a3f 8e2e 263f baae 103f
000000d0: a17c 093f 2981 373f ecae 03bf 0351 a4be
000000e0: a3e3 96be 8cdd 1ebf e9ee fabe b677 efbe
000000f0: 3cba e4be f01d d0be 341a f4be abdc 10bf
00000100: b0c4 c5be c233 20bf 76e2 91be 983f 14bf
00000110: ed8c dbbe 8b59 ccbe f305 e0be 3e49 13bf
00000120: 35b2 23bf c3d7 22bf 5062 90be 5e40 fbbe
00000130: 55b7 e1be 7c61 8ebe 8216 05bf 6aad bbbe
00000140: 2773 18bf
