weights/seven.weight.npy (npy, 452 bytes, 1 tensors)

array f4 [3, 3, 3, 3]
000000 a9 23 2f bf 72 7b 24 bf cf ee 49 bf 52 65 1d bf
       -0.6841379 -0.6425086 -0.7888002 -0.6148273
000010 d3 ff ec be f2 65 3f bf 0b fd f5 3e af 06 46 3f
       -0.46288928 -0.7476493 0.4804462 0.7735395
000020 79 0a 36 bf 36 4f f4 be e9 f2 41 bf a8 8e 26 bf
       -0.7110973 -0.47716683 -0.75761276 -0.65061426
000030 5a d9 11 bf f3 4d 1a bf 67 a9 2b bf 24 92 3e bf
       -0.5697228 -0.6027519 -0.6705536 -0.7444174
000040 22 2c 2b bf 85 52 f3 3e 81 d4 34 be 62 f4 20 bd
       -0.66864216 0.47523895 -0.17659189 -0.03929556
000050 7c fd 25 3e 49 5b 2a 3e 20 fb c3 bd 49 08 0d 3d
       0.16209978 0.16636385 -0.09569383 0.03443173
000060 75 54 44 bd b4 71 91 3a 8a b8 44 be 17 d2 c5 be
       -0.047932107 0.0011096508 -0.19211021 -0.38636848
000070 a0 82 90 be 91 b7 8b be 98 ca d5 be 21 c2 96 be
       -0.2822466 -0.27288488 -0.4175613 -0.29444984
000080 8b 7d 08 bf 9c 7a af be dd cf b7 be 0e 47 c0 be
       -0.53316563 -0.3427323 -0.35900775 -0.3755421
000090 fc 30 00 bf 39 1b 14 bf db b0 de be a8 77 cc be
       -0.50074744 -0.5785404 -0.43494305 -0.3993504
0000a0 18 88 0a bf 34 2f d5 be 31 18 17 bf 53 bc 9b be
       -0.5411391 -0.41637576 -0.5902129 -0.30417117
0000b0 3b 45 17 bf ab 57 05 bf 0a e4 cd be a8 8f 1d bf
       -0.5909001 -0.52086896 -0.40213042 -0.6154733
0000c0 ba bb 03 bf 4e 29 eb be e4 25 eb be ff 78 0f bf
       -0.51458323 -0.4592995 -0.45927346 -0.56044
0000d0 c8 f1 cc be 96 87 3d bf ad e1 40 3e fe 5d a3 3d
       -0.40028214 -0.7403501 0.18836088 0.07976912
0000e0 d6 e5 cc bd 34 2a e6 3c 33 21 ec bd dc fe c0 bd
       -0.10004775 0.028096296 -0.1152977 -0.094236106
0000f0 9a 04 cb bd f1 d2 2b be 5e a8 ed 3d c6 f6 57 3c
       -0.09912987 -0.16779687 0.11604379 0.013181394
000100 eb b8 23 3e 85 e3 76 bd 24 df 0f 3e 69 21 ef bc
       0.1598851 -0.060275573 0.14049965 -0.029190736
000110 04 06 16 bd 91 45 6b 3c ec 6b 18 be 59 b5 14 3d
       -0.03662683 0.014359848 -0.14884919 0.03630576
000120 72 3d 57 bd 97 a2 03 be b5 03 31 3e a9 fa e9 bd
       -0.052548833 -0.12854992 0.1728657 -0.11424763
000130 74 6c 90 bd 97 36 fb bd 81 b2 85 3d 8d 78 27 be
       -0.07051936 -0.122662716 0.065281875 -0.1635458
000140 94 88 3d 3e
       0.18509132
