weights/twelve.weight.npy (npy, 528 bytes, 1 tensors)

array f4 [10, 10]
000000 9a 0f 22 be 64 bb b0 be fd eb 06 bf f7 a7 08 bd
       -0.15826264 -0.34517968 -0.5270384 -0.03336331
000010 b8 fc a8 bf 46 0a 25 3f 86 76 45 3f 37 13 ec 3e
       -1.3202124 0.644688 0.7713398 0.4610841
000020 1c 91 cc 3d 6a 31 da be f4 fc a2 3c 8c 11 89 be
       0.09988615 -0.42615825 0.019896008 -0.267712
000030 28 32 c0 be 52 ce 9a 3c e0 56 eb 3d de 6a c4 bd
       -0.37538266 0.01889721 0.114911795 -0.09590696
000040 08 47 bb 3e be 48 75 be 30 a9 5e bf d0 56 b9 bd
       0.3657763 -0.2395353 -0.8697691 -0.09049761
000050 b7 d1 a4 3e b4 9e 14 3f 81 a6 95 3e 7a 47 ee 3e
       0.3219125 0.5805466 0.29228595 0.46538907
000060 78 c7 89 3f c8 ef 72 be ec 77 7d be 41 13 e3 3d
       1.0763998 -0.23724282 -0.24752778 0.11087657
000070 b5 73 2a bf 0a f3 4b 3f 39 c4 a4 3e dc 0f 4a be
       -0.66582805 0.79667723 0.32180956 -0.19732612
000080 4d 96 da be e3 e4 13 bf 6b 2a a1 3f 28 a9 34 bf
       -0.42692795 -0.5777113 1.259107 -0.7057061
000090 1e f7 11 bf 02 58 37 bf 31 fb a2 bf 91 06 b3 3e
       -0.57017696 -0.71618664 -1.2732908 0.34965947
0000a0 f8 f9 6d 3f ec 07 93 3f 55 9a 6a 3e d3 d6 2f 3f
       0.9295955 1.1486793 0.22910435 0.6868717
0000b0 6e 59 77 3e 10 5e 79 3d 72 17 9d 3e 25 57 84 be
       0.24155208 0.06088072 0.3068195 -0.25847736
0000c0 df 07 a9 3f e1 62 90 3f 8f ba 53 3e 3d e7 e5 3d
       1.3205527 1.1280175 0.20676635 0.11225746
0000d0 c2 bc 89 be a5 54 4b 3c b0 f7 b2 bd 0b 72 a1 3e
       -0.26901823 0.012410318 -0.08738649 0.3153232
0000e0 08 af 7e bd b8 3a cf 3d 6b a3 bd be 14 bc 26 3f
       -0.06217864 0.101186216 -0.3703874 0.65130734
0000f0 19 5f 5b 3f 0e ed 8a 3e 39 9d 02 bf fe 8f 06 be
       0.8569198 0.27133983 -0.5102115 -0.13140866
000100 54 11 86 bf 24 37 ee 3e 56 88 3a be a8 07 21 3f
       -1.0474038 0.46526444 -0.1821607 0.6290231
000110 22 81 48 3f 08 a4 7e 3e 98 31 7c 3e 18 79 86 ba
       0.7832204 0.2486726 0.24628294 -0.0010259477
000120 40 5c 82 be da 7e 2b be 69 5f 18 3f 3e 69 c3 be
       -0.25461006 -0.16747609 0.59520584 -0.3816623
000130 5f 09 6a be 2f bb 8e be 88 76 15 be e5 2e 56 3e
       -0.22855137 -0.27877185 -0.14595997 0.20916326
000140 64 11 e6 3e f8 2d d2 3e 72 b2 44 be ea 0a 9f bd
       0.44935143 0.41050696 -0.19208696 -0.077657536
000150 c6 2d 23 3e 58 e9 07 bd 92 6f 1a be 1f 4a a3 be
       0.1593543 -0.03318152 -0.15081623 -0.31892487
000160 f3 7c 98 3e f8 0e 8b 3e 39 6c 96 be 3e 73 a5 bd
       0.2978283 0.27159858 -0.29379442 -0.08078621
000170 55 ba 9e be 30 b6 14 3e 56 3d c2 3d a2 d2 26 be
       -0.31001535 0.14522624 0.09484355 -0.16291288
000180 97 e1 03 3f 73 2d 42 bf 35 be e1 3d f8 6a e1 be
       0.515161 -0.758506 0.11022607 -0.44026923
